…
Podatki uspešno naloženi iz /home/tomi/Documents/Studij/Letnik2/Semester2/pametni-paketnik/ORV/data/lfw_final_dataset_denoise-false.npz
  Učna množica: 64393 slik
  Validacijska množica: 1972 slik
  Testna množica: 1972 slik

[KORAK 2/5] Priprava generatorjev podatkov...
  Train generator: 625 batchev na epoho.
  Validation generator: 157 batchev na epoho.

[KORAK 3/5] Definiranje modelov...
--- Struktura Embedding Modela ---
Model: "EmbeddingModel"
┏━━━━━━━━━━━━━━━━━━━━━━━━━━━━━━━━━┳━━━━━━━━━━━━━━━━━━━━━━━━┳━━━━━━━━━━━━━━━┓
┃ Layer (type)                    ┃ Output Shape           ┃       Param # ┃
┡━━━━━━━━━━━━━━━━━━━━━━━━━━━━━━━━━╇━━━━━━━━━━━━━━━━━━━━━━━━╇━━━━━━━━━━━━━━━┩
│ input_image (InputLayer)        │ (None, 64, 64, 3)      │             0 │
├─────────────────────────────────┼────────────────────────┼───────────────┤
│ conv1_1 (Conv2D)                │ (None, 64, 64, 32)     │           896 │
├─────────────────────────────────┼────────────────────────┼───────────────┤
│ bn1_1 (BatchNormalization)      │ (None, 64, 64, 32)     │           128 │
├─────────────────────────────────┼────────────────────────┼───────────────┤
│ conv1_2 (Conv2D)                │ (None, 64, 64, 32)     │         9,248 │
├─────────────────────────────────┼────────────────────────┼───────────────┤
│ bn1_2 (BatchNormalization)      │ (None, 64, 64, 32)     │           128 │
├─────────────────────────────────┼────────────────────────┼───────────────┤
│ pool1 (MaxPooling2D)            │ (None, 32, 32, 32)     │             0 │
├─────────────────────────────────┼────────────────────────┼───────────────┤
│ conv2_1 (Conv2D)                │ (None, 32, 32, 64)     │        18,496 │
├─────────────────────────────────┼────────────────────────┼───────────────┤
│ bn2_1 (BatchNormalization)      │ (None, 32, 32, 64)     │           256 │
├─────────────────────────────────┼────────────────────────┼───────────────┤
│ conv2_2 (Conv2D)                │ (None, 32, 32, 64)     │        36,928 │
├─────────────────────────────────┼────────────────────────┼───────────────┤
│ bn2_2 (BatchNormalization)      │ (None, 32, 32, 64)     │           256 │
├─────────────────────────────────┼────────────────────────┼───────────────┤
│ pool2 (MaxPooling2D)            │ (None, 16, 16, 64)     │             0 │
├─────────────────────────────────┼────────────────────────┼───────────────┤
│ conv3_1 (Conv2D)                │ (None, 16, 16, 128)    │        73,856 │
├─────────────────────────────────┼────────────────────────┼───────────────┤
│ bn3_1 (BatchNormalization)      │ (None, 16, 16, 128)    │           512 │
├─────────────────────────────────┼────────────────────────┼───────────────┤
│ conv3_2 (Conv2D)                │ (None, 16, 16, 128)    │       147,584 │
├─────────────────────────────────┼────────────────────────┼───────────────┤
│ bn3_2 (BatchNormalization)      │ (None, 16, 16, 128)    │           512 │
├─────────────────────────────────┼────────────────────────┼───────────────┤
│ pool3 (MaxPooling2D)            │ (None, 8, 8, 128)      │             0 │
├─────────────────────────────────┼────────────────────────┼───────────────┤
│ conv4_1 (Conv2D)                │ (None, 8, 8, 256)      │       295,168 │
├─────────────────────────────────┼────────────────────────┼───────────────┤
│ bn4_1 (BatchNormalization)      │ (None, 8, 8, 256)      │         1,024 │
├─────────────────────────────────┼────────────────────────┼───────────────┤
│ conv4_2 (Conv2D)                │ (None, 8, 8, 256)      │       590,080 │
├─────────────────────────────────┼────────────────────────┼───────────────┤
│ bn4_2 (BatchNormalization)      │ (None, 8, 8, 256)      │         1,024 │
├─────────────────────────────────┼────────────────────────┼───────────────┤
│ pool4 (MaxPooling2D)            │ (None, 4, 4, 256)      │             0 │
├─────────────────────────────────┼────────────────────────┼───────────────┤
│ flatten (Flatten)               │ (None, 4096)           │             0 │
├─────────────────────────────────┼────────────────────────┼───────────────┤
│ dense1 (Dense)                  │ (None, 512)            │     2,097,664 │
├─────────────────────────────────┼────────────────────────┼───────────────┤
│ bn_dense1 (BatchNormalization)  │ (None, 512)            │         2,048 │
├─────────────────────────────────┼────────────────────────┼───────────────┤
│ embedding_dense (Dense)         │ (None, 128)            │        65,664 │
├─────────────────────────────────┼────────────────────────┼───────────────┤
│ embedding_l2_norm (Lambda)      │ (None, 128)            │             0 │
└─────────────────────────────────┴────────────────────────┴───────────────┘
 Total params: 3,341,472 (12.75 MB)
 Trainable params: 3,338,528 (12.74 MB)
 Non-trainable params: 2,944 (11.50 KB)

--- Struktura Triplet Training Modela ---
Model: "TripletTrainingModel"
┏━━━━━━━━━━━━━━━━━━━━━┳━━━━━━━━━━━━━━━━━━━┳━━━━━━━━━━━━┳━━━━━━━━━━━━━━━━━━━┓
┃ Layer (type)        ┃ Output Shape      ┃    Param # ┃ Connected to      ┃
┡━━━━━━━━━━━━━━━━━━━━━╇━━━━━━━━━━━━━━━━━━━╇━━━━━━━━━━━━╇━━━━━━━━━━━━━━━━━━━┩
│ anchor_input        │ (None, 64, 64, 3) │          0 │ -                 │
│ (InputLayer)        │                   │            │                   │
├─────────────────────┼───────────────────┼────────────┼───────────────────┤
│ positive_input      │ (None, 64, 64, 3) │          0 │ -                 │
│ (InputLayer)        │                   │            │                   │
├─────────────────────┼───────────────────┼────────────┼───────────────────┤
│ negative_input      │ (None, 64, 64, 3) │          0 │ -                 │
│ (InputLayer)        │                   │            │                   │
├─────────────────────┼───────────────────┼────────────┼───────────────────┤
│ EmbeddingModel      │ (None, 128)       │  3,341,472 │ anchor_input[0][… │
│ (Functional)        │                   │            │ positive_input[0… │
│                     │                   │            │ negative_input[0… │
├─────────────────────┼───────────────────┼────────────┼───────────────────┤
│ merged_embeddings   │ (None, 384)       │          0 │ EmbeddingModel[0… │
│ (Lambda)            │                   │            │ EmbeddingModel[1… │
│                     │                   │            │ EmbeddingModel[2… │
└─────────────────────┴───────────────────┴────────────┴───────────────────┘
 Total params: 3,341,472 (12.75 MB)
 Trainable params: 3,338,528 (12.74 MB)
 Non-trainable params: 2,944 (11.50 KB)

[KORAK 4/5] Kompilacija modela...
…
